checkpoints/model_0_best_100_examples.pt (torch, 385887 bytes, 3 tensors)

classifier.0.weight f4 [32, 3000]
00000000: 50ba 333c 57cf 3cbc a517 293c 4783 ad3b
00000010: 21e0 6ebb a2a4 2b3c 6a7e d73b 2e27 93bc
00000020: 06b6 11bb de08 24bb 9d9c 593c acdd 3e3c
00000030: 0659 4b3c 059f 303c 0c71 bfbb fb95 423b
00000040: 21aa 853c 104d 41bc f15d d5bb 61c7 41bc
00000050: 3616 453c 4da1 91bc 68eb 973b 8563 923c
00000060: 5ff6 3cbc 07e7 0ebc 56eb afbb 75b4 83bc
00000070: 4bc2 74b9 58d8 b83b dc08 2bbc f8d4 edbb
00000080: 39d8 93bc 1056 583c 72f5 8b3c 6275 49bc
00000090: 7181 353c aefc 84b9 e916 60bc 2dfb d53b
000000a0: 269c 4f3c aec6 40bc cb81 1a3c 9aaa 4ebc
000000b0: c26f 233c bf67 673c 7da5 54bc 9d8a 4c3c
000000c0: bf8a 583c 00b7 93bc 45cb 7bbc 340c aabb
000000d0: 23bd 503c 78c7 30bb 9994 eebb 4908 3cbc
000000e0: e6f8 683c 5558 2cbb 9476 053c a621 1abc
000000f0: c738 5bbc 3c68 70bc 75a8 473c 09e3 443c
00000100: aace 523b cad9 8ebc 4924 41bc ec98 9bbb
00000110: 5af7 fb3b 41a1 083c 58ab d03b 3b00 003b
00000120: ea13 1e3c 2ba3 b63b 5e23 753c 19a2 cbbb
00000130: 12b3 363c 0bfc 8bbc 72d6 403c f071 f03b
00000140: 42f8 6bbc 31e3 53bc 88f4 183c 9777 593c
00000150: a859 c53b 3457 d83b ec9b 6dbc eee9 943a
00000160: 0014 1bbc 9c39 533c 6afb c5bb 167b 833a
00000170: 1fff 093c 742d 903c 8bed 6fbc 7f11 adba
00000180: e9c6 a1bb ccb8 173b 128a 343c ca13 7bbc
00000190: 3f0a 5ebc 83f5 193c ba1a 0cbc ab39 86bb
000001a0: 0ef5 92bb 735e ebba e37a b5bb 7d4e 153b
000001b0: e89d 8dbc 3b26 7dbc 8727 0e3c 1b26 723b
000001c0: af1a 933b 2e89 7dbc 167f 05bc 30a5 e03a
000001d0: c33d d3bb 43a4 983b 99a6 5d3a 566d 6e3c
000001e0: 3691 80bc 7635 30bc 2b2f 82bc e823 613c
000001f0: 9c99 29bc aea6 67bc a9cc 6d3c da4c 58ba
00000200: f9e8 20ba 54dd 54bc ce47 eabb a737 473c
00000210: 8db8 26bc ced8 e7bb aeec be3b 5cd0 6fbc
00000220: b887 1a3c b7b8 d13b a3ae debb 098e 033c
00000230: 465e 7d3c ee70 6cbb af82 3f3c fc6a 623c
00000240: 9b5b 0e3c a6e5 89bb 7623 813c 6d5f 0fbc
00000250: b5d5 883b 7ae5 43bb 29b8 143c 1f8c 60bc
00000260: 6146 60bc a48c 4a3c 65a0 38bc 412a 71bc
00000270: 0be3 593a 4145 40bc 7669 14bc 547b 223b
00000280: 8c46 2f3c ae9f 31bc e70f 843c ee0e ed3b
00000290: 84fd f03b bcba 4ebc ec81 6dbc 7182 a7bb
000002a0: 3d20 9ebb fd2b 903c 6fc1 d3bb 58c5 223c
000002b0: a763 603c 8248 823a 049e 44bc 9c3a 363c
000002c0: 067a 90ba cdc4 1c3b 2ec0 e139 3c20 093b
000002d0: 41c8 323c 7f3c 453b 8c32 43bc 6d70 88bc
000002e0: 8a14 863c dc3a 3f3c f4b0 83bc 690b e43b
000002f0: ed64 3ebc 53b2 12bc f506 913c 6e52 f4bb
00000300: 7830 8e3c b31a 3cbc 7551 693c d04b 6f3b
00000310: 003f 8dbb 2082 3a3c 4480 25bc cb56 353c
00000320: ce0e 873a 5520 0ebb 7998 8cbb dbee 003c
00000330: d6ca 863c dd2b 2cbc 13af 89bc b150 8ebc
00000340: 51e0 263b e98b ff3b 3a6f ac39 8c44 43bc
00000350: a4d8 07bc c295 1dbc 501e 68bc 6783 d13b
00000360: 1920 b9ba 670c 56bc db8b 543c d821 773c
00000370: 29bc 393c 23ad 7fbc a4a7 9f3a 14bf abbb
00000380: 1e42 203c 7309 e9bb e890 713b 9c32 2f3c
00000390: 0c6a f93b c7f3 7cbc 6a15 28bc 6b3c 3fbc
000003a0: 1e30 ec3a 5afc 6f3c fb76 193c 36d3 61bc
000003b0: 72d4 c3bb 944c 413c 7f58 6bbb c9d3 4b3c
000003c0: 7842 cc3b e791 ec3b 2370 153c 91cf 113c
000003d0: 0893 17bc b937 ee3a 3c72 933c 8f7a 193c
000003e0: a0aa b13b 20d6 8e3c b2c8 89bb 201d 42bc
000003f0: 0fe0 193c 320a c13b b7f3 3abc 7c07 82bc
0.010969713 -0.011524043 0.010320579 0.0052951905 -0.003644951 0.010476263 0.006576349 -0.017963018
-0.0022233739 -0.00250297 0.013281968 0.01164953 0.012411362 0.010780101 -0.0058423337 0.0029691446
0.016316475 -0.011798158 -0.006511443 -0.011827321 0.012029221 -0.01777711 0.004636217 0.01786972
-0.011533349 -0.008722073 -0.0053686304 -0.01607726 -0.00023342033 0.0056410246 -0.010439124 -0.007258054
-0.018047439 0.013204113 0.01708481 -0.012296053 0.0110782245 -0.00025365263 -0.013677337 0.0065301866
0.012671506 -0.011766119 0.009430359 -0.012613917 0.009975376 0.014123856 -0.012978909 0.01248422
0.013216673 -0.018031597 -0.015368287 -0.005189443 0.012740406 -0.0026974361 -0.007280898 -0.011476585
0.014219498 -0.0026297767 0.008145947 -0.0094074365 -0.013380236 -0.014673289 0.012186159 0.01201702
0.0032166638 -0.017437834 -0.011788436 -0.0047484543 0.0076893987 0.008339227 0.006368082 0.0019531387
0.009648303 0.0055736504 0.0149620455 -0.006214392 0.011151092 -0.017087957 0.011769878 0.007337801
-0.014402451 -0.012932585 0.009335645 0.013273141 0.0060226507 0.0066021923 -0.014502507 0.001136122
-0.009465218 0.012892153 -0.006041934 0.0010031189 0.008422642 0.017599799 -0.014644037 -0.0013204067
-0.004937042 0.002315092 0.011019247 -0.015324542 -0.013552248 0.009396913 -0.008551294 -0.00409623
-0.004484779 -0.0017957225 -0.005538331 0.0022782378 -0.01728721 -0.015451009 0.008676416 0.0036948982
0.004489265 -0.015474601 -0.008147975 0.0017139073 -0.0064465716 0.0046582534 0.0008455306 0.014552435
-0.015694242 -0.010754934 -0.015891632 0.013741471 -0.010351565 -0.014138861 0.014514127 -0.0008251198
-0.0006138231 -0.012992222 -0.007149673 0.012159265 -0.010175836 -0.0070754057 0.0058265543 -0.014637079
0.009431772 0.0064001936 -0.0067957207 0.008029469 0.015464371 -0.0036078054 0.011688872 0.013819452
0.008688833 -0.0042082844 0.01576398 -0.008750779 0.0041758665 -0.0029891417 0.00907711 -0.0137052825
-0.013688655 0.012362633 -0.01126871 -0.014719547 0.0008311725 -0.011735261 -0.009058347 0.0024792748
0.010697972 -0.010841293 0.016120864 0.007234446 0.00735444 -0.012617763 -0.014496308 -0.0051119854
-0.0048256204 0.0175991 -0.006462268 0.009934746 0.013695634 0.0009939822 -0.0120005645 0.011122372
-0.0011022694 0.0023921013 0.0004305853 0.0020923754 0.010912002 0.0030095873 -0.011913907 -0.016655171
0.016367216 0.011671748 -0.016075589 0.006959368 -0.011620742 -0.008953649 0.017703513 -0.0074561154
0.017357096 -0.011480975 0.014240612 0.0036513694 -0.0043104887 0.011383563 -0.010101382 0.011068056
0.0010304095 -0.0021686752 -0.004290637 0.007869448 0.016454142 -0.010508505 -0.016807115 -0.017372461
0.0025463293 0.007798661 0.00032889267 -0.011918198 -0.008291397 -0.009618225 -0.014167383 0.006393838
-0.0014123946 -0.01306448 0.012972797 0.015083753 0.011336365 -0.015605244 0.0012180698 -0.005241284
0.009781389 -0.007111722 0.0036860052 0.010693219 0.0076115187 -0.01543898 -0.010259012 -0.01167212
0.0018019711 0.014647568 0.009366746 -0.013783267 -0.005976253 0.011798043 -0.0035910902 0.01244063
0.0062335096 0.0072195414 0.009120974 0.008899585 -0.009251364 0.0018174566 0.017998807 0.009367599
0.0054219514 0.017436087 -0.004204833 -0.011847764 0.009391799 0.005891108 -0.011410645 -0.01587271

classifier.0.bias f4 [32]
00000000: 4413 7f3c c0b0 b43b bf8e 663c 69b7 eabb
00000010: 1a2d 9ebc 4930 88bc 1655 583b f2d8 74bc
00000020: f3e8 83bc 9bb7 a03b 02b1 ad3b 9c42 56bc
00000030: 3b9a f3bb c5ba 91bb 5d99 383a f9b3 45bc
00000040: 543c 513c 34d3 223c a1e7 f4bb 407b 29ba
00000050: 9b03 be3b a71e 82bc 1416 fdbb b8cd 51bc
00000060: 1787 9cba bd39 70bc 9783 893b 1b7a a5bb
00000070: 0233 41bc 429a 893c b696 7dbc b8ec 02bc
0.015568558 0.0055142343 0.014072119 -0.0071629775 -0.019308615 -0.016624587 0.00330097 -0.014944302
-0.01610229 0.0049047 0.005300642 -0.013077404 -0.007434157 -0.0044473135 0.0007041896 -0.012066835
0.012770731 0.00993805 -0.0074739014 -0.0006465204 0.0057987696 -0.015883757 -0.007723579 -0.012805395
-0.0011942115 -0.014662203 0.004196595 -0.0050499565 -0.011791946 0.016797189 -0.015477827 -0.007991008

classifier.2.weight f4 [1, 32]
00000000: fb13 e2ba 97e2 bc3c 7c1d a3bc 3fc9 d1bd
00000010: f1a5 b73d b6d4 e43d a971 1abe 703d e7bc
00000020: fc61 e4bd 3689 61bd 8be4 a3bd 3199 04be
00000030: 2c1c 2b3e b004 5a3d 4722 a83c 9e55 653d
00000040: 2e61 e4bd 4b3d cf3d c391 ea3d 9644 a2bd
00000050: 7d0e 5cbd 6aa0 4cbd a781 9dbc 8071 48bd
00000060: 2b37 083d ff63 bebd 1dc9 6ebd 131d 76bd
00000070: 1a09 68bd 84de 563d 4014 e6bd a4f7 b8bd
-0.0017248386 0.023057265 -0.01991152 -0.10243463 0.08967198 0.11173384 -0.1508242 -0.028227538
-0.111515015 -0.055062495 -0.080025755 -0.12949063 0.16709965 0.053227127 0.020524157 0.055989854
-0.11151348 0.101191126 0.11453583 -0.07923238 -0.053724755 -0.04995767 -0.019226862 -0.048936367
0.033255737 -0.092964165 -0.058297265 -0.06008632 -0.056649305 0.0524583 -0.11234331 -0.09031609
